sine_wave.tflite (tflite, 3196 bytes, 5 tensors)

sequential_3/dense_5/BiasAdd/ReadVariableOp f4 [16]
000000 46 39 d5 bd fb e9 e1 3d 06 24 01 3f d3 c3 ca be
       -0.10411315 0.11030956 0.5044559 -0.39602527
000010 00 00 00 00 6c 2c ba be 7f 3d 1a bd a9 29 38 be
       0.0 -0.36362016 -0.037656303 -0.17984642
000020 da 6a 27 bc 07 b8 cb be 00 00 00 00 33 95 43 bd
       -0.0102183465 -0.3978884 0.0 -0.04774971
000030 b4 51 d6 3c 00 00 00 00 f9 84 71 bd ff 97 ba 3b
       0.026162006 0.0 -0.058964703 0.005694389

sequential_3/dense_4/BiasAdd/ReadVariableOp f4 [16]
000000 00 00 00 00 a8 27 1d bf 4e 4d 01 bf a9 91 2c 3e
       0.0 -0.61388636 -0.5050858 0.1685244
000010 49 d6 92 3e f4 44 db be 00 00 00 00 00 00 00 00
       0.28679112 -0.42826045 0.0 0.0
000020 00 00 00 00 2a fe ab be 00 00 00 00 00 00 00 00
       0.0 -0.3359235 0.0 0.0
000030 00 00 00 00 46 0e 14 3e dd ec 08 bf 42 cd 32 3e
       0.0 0.1445857 -0.53486425 0.17461112

sequential_3/dense_4/MatMul f4 [16, 1]
000000 18 a7 a5 bd eb 79 64 3e 4e aa 14 3f 5f 67 df 3e
       -0.08088511 0.22312133 0.58072364 0.43633553
000010 23 b8 3c 3e 3d b6 ba 3e e6 1b 15 bf 76 53 d0 be
       0.18429618 0.36467162 -0.58245695 -0.40688676
000020 b1 8a d0 be c5 b5 91 3e 50 eb d5 bd b8 73 0e bf
       -0.40730813 0.28458992 -0.10445273 -0.5564532
000030 8c 48 54 be 68 8d 6e 3e 0a 55 8c 3e a1 59 ec 3e
       -0.207308 0.2329613 0.2740863 0.4616213

sequential_3/dense_5/MatMul f4 [16, 16]
000000 00 46 65 bc e5 13 49 be 75 26 fb 3e ee 81 80 3d
       -0.01399374 -0.19636495 0.49052778 0.06274782
000010 3a d9 8e 3e 77 13 d2 3e 1c 49 d8 bd c2 94 3b 3e
       0.27900106 0.41030475 -0.105608195 0.18318465
000020 17 42 87 be 98 96 f2 3e eb 62 82 3e e0 f3 4f bc
       -0.2641761 0.4738052 0.25466093 -0.012692422
000030 d0 dc 33 be 34 0b 09 be 43 ee 82 be ac fd 0d be
       -0.17564702 -0.1338318 -0.25572404 -0.138663
000040 60 50 79 3c 23 35 18 bf 5d ba 93 be 1f 16 82 3c
       0.015216917 -0.5945608 -0.2885312 0.015879689
000050 41 8b 93 3d 83 65 21 bf 7d bd c0 3e 85 fe 82 be
       0.07204295 -0.6304552 0.37644568 -0.25584808
000060 48 a0 85 3d f4 83 95 3e 75 54 ce be b0 eb d1 bc
       0.06524712 0.29202235 -0.4029881 -0.02562508
000070 00 78 24 3c e5 c9 c6 3e 69 8c 33 bf 65 1b da 3e
       0.010038376 0.38825908 -0.70136124 0.42599025
000080 60 c7 92 bd 88 cd bc be ca ac 2f bf 03 a5 11 be
       -0.07166934 -0.36875558 -0.6862303 -0.14223103
000090 a7 38 37 3c 14 a9 be be 48 a6 79 3d 72 9e 55 3e
       0.011182941 -0.3723837 0.060949594 0.20861223
0000a0 56 0a 23 be d9 1d fb be e0 74 1a bd 42 ee af be
       -0.15921912 -0.4904621 -0.037709117 -0.34361464
0000b0 80 c4 06 3b 8b 2e 4c 3e 86 8a 18 bf 0e 00 de bc
       0.00205639 0.1993963 -0.5958637 -0.027099635
0000c0 b2 54 6f 3e 93 33 04 3f 03 11 96 3e 47 a9 1a bd
       0.23372152 0.51641196 0.29309854 -0.03775909
0000d0 6e 82 e6 be 8b c4 81 3e 18 ad 84 be 16 3a 04 3e
       -0.45021385 0.25345263 -0.2591331 0.12912783
0000e0 20 25 b4 3c c9 87 23 3e ce 55 9c be c0 d0 8e bc
       0.021990359 0.15969767 -0.30534214 -0.017433524
0000f0 40 bd e1 3c 99 ae 1e 3e eb 34 fc 3e 5b 76 e2 be
       0.027556062 0.15496291 0.49259123 -0.44230923
000100 38 39 4e 3d 8f ba c2 be b0 d2 b8 be 81 67 91 be
       0.050347537 -0.38032958 -0.36098242 -0.2839928
000110 a0 e1 8c be 7f 07 bf 3e 48 dc d7 be bc 27 b9 3d
       -0.27515888 0.37310407 -0.4216025 0.09040782
000120 30 b0 e7 bd d0 69 19 3d 90 b1 35 3d 28 f0 36 3d
       -0.11312902 0.037454426 0.04435879 0.044662625
000130 4f 85 d9 3e f9 c3 bc be 90 98 0b be 29 c5 9c 3e
       0.4248452 -0.36868265 -0.13632417 0.3061917
000140 b0 f0 cf bd e7 5f bf 3e 54 69 a4 3e 04 a4 e5 be
       -0.10153329 0.37377855 0.3211161 -0.44851696
000150 47 15 cb bd ad f2 8a bd 48 d5 5d 3d 80 f8 30 bd
       -0.09916168 -0.06784568 0.05415848 -0.043205738
000160 4c 65 cb 3d 3d c1 e1 3e 33 81 57 be 24 85 ad 3d
       0.0993143 0.44092742 -0.2104538 0.0847266
000170 1c 81 9f 3d d8 52 a4 3e 48 42 3f bb 38 01 fe bd
       0.077882975 0.32094455 -0.0029183794 -0.12402576
000180 8e 4a 30 3e 58 26 9f 3e 04 08 84 3e 15 a1 2d be
       0.1721594 0.3108394 0.25787365 -0.16955979
000190 a0 91 40 3d 10 56 27 be 8b 97 c0 3e f9 ef b3 be
       0.04701388 -0.16341424 0.37615618 -0.35144022
0001a0 9c 77 b5 3d d8 2d 83 be 72 72 b4 be e0 d7 91 bc
       0.08860704 -0.25620914 -0.35243565 -0.017803133
0001b0 6a 67 af be 2d 29 9d be ad 9f cc 3d f8 94 8c 3d
       -0.34258586 -0.30695477 0.09991393 0.06864351
0001c0 b4 4d 39 be 96 a0 1b be 27 0f 24 3e 81 bb 85 3e
       -0.18096048 -0.15197977 0.16021405 0.26119617
0001d0 cc 54 8b be d3 96 96 bd 0e 43 34 be 6c db ad bd
       -0.27213132 -0.07352986 -0.17603704 -0.08489117
0001e0 57 4a 86 be ba 37 f0 3e e3 30 9b be f4 05 ef 3d
       -0.26228592 0.46917516 -0.30310735 0.11671057
0001f0 4e c0 bc be 78 60 e1 3d 73 9a 81 3e f6 1d 51 3e
       -0.36865467 0.11004728 0.25313148 0.20421585
000200 5c e0 e2 3d 2d 82 49 be 16 e4 19 be 70 74 b0 3e
       0.110779494 -0.19678564 -0.15028414 0.34463835
000210 01 4f 86 be 73 a4 bf 3d e0 b6 dd bc 2c fc 9b be
       -0.2623215 0.09357538 -0.02706474 -0.3046583
000220 4a f5 b8 be b3 3f c6 3b 00 55 b7 bd 68 45 11 3d
       -0.3612464 0.006050074 -0.08951759 0.03546658
000230 f8 b1 bb be 44 87 b7 bd 81 39 a8 be f8 ef b1 be
       -0.36659217 -0.08961347 -0.32856372 -0.34753394
000240 bf 08 b6 be 38 5e 16 3f 25 05 73 bd a1 f2 e8 bd
       -0.35553548 0.58737516 -0.059331078 -0.11374403
000250 f2 07 35 bc da 35 c0 3d 34 26 e4 3d 40 cc 8a 3b
       -0.011049258 0.09385271 0.11140099 0.0042357743
000260 d4 51 14 be 86 37 d9 3e 32 38 0e be 8d 65 d1 be
       -0.1448434 0.42425174 -0.13888624 -0.4089779
000270 90 c0 32 be 93 95 f2 be 87 27 eb 3e b7 fe c3 3d
       -0.1745627 -0.4737974 0.45928594 0.095700674
000280 c1 48 b4 be 0c ef a5 be e1 68 b4 3e 86 5b c4 be
       -0.35211757 -0.3240894 0.35236266 -0.38351077
000290 bf a4 5c be 0c e9 eb 3d 45 dc 9f 3e a6 9e 7b 3e
       -0.2154722 0.115190595 0.3122274 0.24572238
0002a0 d0 3e 7b be 1f f8 82 3e 28 96 1c 3d 7e 0b b6 be
       -0.2453568 0.25579926 0.038229138 -0.35555643
0002b0 47 30 a8 3e a0 28 a8 3c fc 36 87 bd 54 07 aa be
       0.32849333 0.020527184 -0.06602284 -0.33208716
0002c0 0e 96 a1 be 86 56 9a be 75 f7 0c 3e f5 e5 c2 be
       -0.31559795 -0.30144137 0.13766272 -0.38066068
0002d0 92 5d ea be 0e a0 f2 3d 55 38 52 be 3e 33 11 be
       -0.45774513 0.11846934 -0.20529301 -0.14179704
0002e0 c0 99 c6 bd c1 ca d1 be b2 90 d7 be d8 67 eb bd
       -0.09697294 -0.40975 -0.4210258 -0.11494416
0002f0 c5 80 da be 3d c0 7d 3e 12 7a 9c bd 23 78 c8 3e
       -0.42676368 0.24780364 -0.076404706 0.39154157
000300 00 1c a2 3a 48 de 3c bf fe dc dd be 77 5a 8f 3e
       0.0012367964 -0.73776674 -0.43332666 0.27998707
000310 ba 70 a3 3e c4 2b 44 be 86 db a6 be 7f 3c 9b 3e
       0.3192194 -0.1915732 -0.32589358 0.30319592
000320 a0 8f 0e 3c 7c 5b 9c 3c 26 41 22 3e e0 e7 23 be
       0.008701235 0.019086592 0.15845165 -0.16006422
000330 38 f8 44 be 07 2c a7 bd 2e fd 4a bd 08 62 94 3e
       -0.19235313 -0.081626944 -0.049557857 0.28981042
000340 4f 3d d9 be e3 da c7 3e 80 a1 83 bc be da 21 be
       -0.42429587 0.39034185 -0.01606822 -0.158061
000350 49 04 d1 be df c3 a0 3e 49 1d b1 3e 4f 9f dd 3e
       -0.40823582 0.31399438 0.34592655 0.43285605
000360 87 a8 c8 3e 61 b0 bc be 47 7a 8f 3e f4 9f 2c be
       0.39191076 -0.36853316 0.28022978 -0.16857892
000370 d4 52 fc bd 0a bf cf be 9f 0b ad 3e 26 59 39 be
       -0.12320486 -0.4057544 0.3379793 -0.18100414
000380 a2 91 1c 3e 2d 3b 5e bf 64 cd 7b be ba d1 2e 3e
       0.1528993 -0.86809045 -0.24590069 0.17072192
000390 35 cd 89 bd 82 4f c6 3d 2e 8a 90 be c6 2a ab be
       -0.06728593 0.09683134 -0.28230423 -0.3343107
0003a0 9b 45 8e 3e 55 dc f2 be 18 98 27 3d 20 d1 16 3c
       0.2778748 -0.47433725 0.040916532 0.009205133
0003b0 9f 85 a0 be 60 c6 ab 3e 99 97 10 bf 27 01 8e 3e
       -0.31351945 0.33549786 -0.5648132 0.27735254
0003c0 f5 5e cb 3e 0b b8 45 bf 6c f3 a6 be 81 18 f0 3d
       0.39720884 -0.7723395 -0.3260759 0.11723424
0003d0 cc 06 ba 3e 6d 39 27 be 88 7b 45 be a9 0c ce be
       0.3633331 -0.163305 -0.19285405 -0.40244034
0003e0 00 7d 6f bc 3f f5 17 bf f8 57 b3 be 79 e0 dc 3e
       -0.014617205 -0.5935859 -0.35028052 0.4314001
0003f0 3b e5 c3 3e bf b8 a8 3e de d1 98 bd ba af 87 3e
       0.38260826 0.3295345 -0.07461904 0.26501256

sequential_3/dense_6/MatMul f4 [1, 16]
000000 90 3a 88 be 47 77 8a 3f d0 96 28 bf db 19 b6 3f
       -0.2660718 1.081765 -0.6585512 1.422664
000010 60 bc 31 3d ee 64 93 3f 32 4e 83 3e b3 e9 8c be
       0.04339254 1.1515176 0.25645596 -0.27522048
000020 d7 c8 2f be 7c 66 b2 3f 87 61 08 bf d9 36 91 3d
       -0.17166458 1.3937526 -0.53273815 0.070905395
000030 81 6f f1 3e 2c fe 02 3f e6 1f 45 3f c6 f1 0f 3f
       0.47155383 0.51169086 0.770018 0.5622829
