sine_model.tflite (tflite, 3168 bytes, 5 tensors)

sequential/dense_1/BiasAdd/ReadVariableOp f4 [16]
0	0x3ee35534	0.44400942
1	0x3ea7e320	0.3279047
2	0x3ebeb0ba	0.37244207
3	0xbcd824dd	-0.026384765
4	0xbea0f3ee	-0.31436104
5	0x3eb3786a	0.35052806
6	0x00000000	0.0
7	0xbb225c12	-0.0024774116
8	0xbef33713	-0.47502956
9	0xbee064cc	-0.43826902
10	0x00000000	0.0
11	0x3ed7f90a	0.4218219
12	0xbbffeabe	-0.007809966
13	0x3ed0af5d	0.40758792
14	0x3ed5778c	0.4169277
15	0x3f01660a	0.50546324

sequential/dense/BiasAdd/ReadVariableOp f4 [16]
0	0x00000000	0.0
1	0x3f07b97d	0.5301741
2	0x3f1c108c	0.6096275
3	0x00000000	0.0
4	0x00000000	0.0
5	0x3dd7f60d	0.10544977
6	0xbd8d6b05	-0.06905178
7	0xbd98fb5a	-0.074698165
8	0x00000000	0.0
9	0xbf3fe9b4	-0.7496598
10	0xbeaa146e	-0.33218712
11	0xbf1372d3	-0.5759708
12	0xbe473ac3	-0.1945601
13	0xbf26b9fc	-0.6512754
14	0x3f909a08	1.1297007
15	0x00000000	0.0

sequential/dense/MatMul f4 [16, 1]
0	0xbd9b1630	-0.07572591
1	0x3eb6d07a	0.3570593
2	0x3eca567f	0.39519116
3	0xbd954f10	-0.072904706
4	0xbef8bd32	-0.48581845
5	0x3eb2a0cf	0.34888312
6	0x3ed83db2	0.4223457
7	0x3e9adf18	0.30248332
8	0xbe435a26	-0.19077358
9	0x3eb99c3a	0.36252004
10	0x3ea6019c	0.32423103
11	0x3f0e65a0	0.5562382
12	0x3e922664	0.28544915
13	0x3f0fb4e5	0.561354
14	0x3d219b04	0.039454475
15	0xbd99dca8	-0.0751279

sequential/dense_1/MatMul f4 [16, 16]
0	0xbe315652	-0.17318085
1	0x3ed71947	0.42011473
2	0xbec142b8	-0.37746215
3	0xbb1e1200	-0.0024119616
4	0xbed5031a	-0.4160393
5	0x3eaa5364	0.33266747
6	0xbdc33223	-0.09531047
7	0xbe5c2e4a	-0.21502033
8	0x3e497e42	0.1967707
9	0xbf4a7f88	-0.7910085
10	0xbe298fe4	-0.16558796
11	0xbdcc1aff	-0.099660866
12	0xbe00f566	-0.12593612
13	0xbe3c2c4f	-0.18376277
14	0x3f2ceeca	0.67551863
15	0x3e9fe92b	0.3123258
16	0x3ddf1c8c	0.10894117
17	0x3e9ca7b6	0.30596703
18	0x3eb7657f	0.35819623
19	0xbea1484a	-0.31500465
20	0xbe61ef7b	-0.22064011
21	0xb9006b81	-0.0001224708
22	0x3ebd12f2	0.36928517
23	0xbe79f7f0	-0.24410987
24	0x3dc2640c	0.09491739
25	0xbef8f153	-0.48621616
26	0xbeb08598	-0.34476924
27	0x3e33ffd3	0.17578058
28	0x3e9dd192	0.30823952
29	0xbef2f88e	-0.47455257
30	0x3ed364c8	0.41287827
31	0x3ed0f9b1	0.408155
32	0xbeae6f19	-0.34069136
33	0xbf1eb396	-0.61992776
34	0xbf06caa2	-0.52652943
35	0x3eb5be17	0.3549659
36	0xbe7d61a0	-0.24744272
37	0x3d002878	0.031288594
38	0xbe0ea9a3	-0.13931899
39	0x3e2a78d2	0.16647652
40	0x3d940f7c	0.07229516
41	0x3d878551	0.06617225
42	0xbdd33c77	-0.10314267
43	0xbea7c53d	-0.32767668
44	0x3c58050f	0.0131848
45	0xbf3837fd	-0.7196043
46	0x3ebfd2cb	0.3746551
47	0x3e81d935	0.25361028
48	0xbe741f5e	-0.2384009
49	0xbdb374d9	-0.08762521
50	0x3e42ee1e	0.19036147
51	0xbebd6738	-0.36992812
52	0xbebc4dca	-0.36778098
53	0xbe42c6ca	-0.19021145
54	0xbc5bbcf8	-0.013411753
55	0x3dd7890c	0.105241865
56	0x3ea1a9e7	0.31574938
57	0xbe325564	-0.17415386
58	0x3e9643a4	0.2934848
59	0x3df7216c	0.120669216
60	0xbe6649e5	-0.22489126
61	0xbe9ff7e4	-0.31243813
62	0xbde08450	-0.109627366
63	0x3e132342	0.14368919
64	0x3ebf3c47	0.37350675
65	0x3e7c17e7	0.24618493
66	0x3d1fc78d	0.039008666
67	0xbd7ce0e8	-0.061737925
68	0xbecb80bb	-0.3974665
69	0xbe684ee4	-0.22686344
70	0x3e079977	0.13242136
71	0x3ed67669	0.41887215
72	0xbeba3a7f	-0.36372754
73	0xbdf95d3a	-0.12175985
74	0xbe910cfc	-0.2833022
75	0x3e92f1ff	0.28700253
76	0x3e2f5464	0.17122036
77	0x3e8e5464	0.2779876
78	0xbd855987	-0.065112166
79	0x3e664816	0.22488436
80	0xbe1af95a	-0.15134183
81	0xbeba91d4	-0.36439383
82	0xbdf8018c	-0.1210967
83	0x3e0c9ada	0.13730946
84	0xbec9e713	-0.39434108
85	0x3eabf5a8	0.33585858
86	0xbea8b521	-0.3295069
87	0xbe9689e9	-0.29402092
88	0x3e037112	0.12836102
89	0xbe7091bf	-0.23493098
90	0x3d195a10	0.037439406
91	0xbf1a5843	-0.60290927
92	0xbed906e4	-0.4238807
93	0x3e0648e5	0.13113745
94	0x3eeeafb6	0.46618432
95	0x3df2321c	0.11825964
96	0xbcf9ded0	-0.030501753
97	0xbecd55d5	-0.40104547
98	0x3dd2c2ac	0.10291037
99	0x3e1b1386	0.15144166
100	0xbe96a793	-0.29424724
101	0xbecc8d60	-0.3995161
102	0xbe99fc61	-0.30075362
103	0x3eb5e289	0.35524395
104	0x3e91a465	0.28445736
105	0xbd8e11a8	-0.069369614
106	0x3e9ab305	0.30214706
107	0xbe04fbd6	-0.12986693
108	0x3e994777	0.29937336
109	0xbe5708e0	-0.2099948
110	0xbeaa7175	-0.33289686
111	0xbc29cea0	-0.010364205
112	0x3e11b30a	0.14228454
113	0x3e8f2500	0.27957916
114	0xbbbf6656	-0.005841057
115	0x3ec0f4fd	0.3768691
116	0x3e744046	0.23852643
117	0xbec6af44	-0.38805592
118	0x3e445213	0.19171934
119	0xbeb26124	-0.34839737
120	0x3d528610	0.051397383
121	0xbde76e28	-0.113003075
122	0xbe40dac1	-0.18833448
123	0xbdb94a98	-0.09047431
124	0xbe24faec	-0.16111344
125	0xbed5f71b	-0.4179009
126	0xbeca19ed	-0.39472905
127	0x3e84adf7	0.25913975
128	0xbec9dd74	-0.39426768
129	0xbed2729b	-0.41103062
130	0xbe369a49	-0.17832293
131	0xbc647460	-0.013943762
132	0xbd79ac78	-0.060955495
133	0x3e9c9ded	0.30589238
134	0xbd2743a4	-0.04083599
135	0x3e40f3cc	0.18843001
136	0xbce6da40	-0.028180242
137	0x3c2da473	0.01059829
138	0x3c3c63c7	0.011498398
139	0x3ef46f33	0.47741088
140	0x3de15dc1	0.1100421
141	0x3ed3b4a2	0.4134875
142	0xbe9e676e	-0.30938286
143	0x3c40b000	0.011760712
144	0x3ea564fb	0.32303604
145	0xbd17b7a5	-0.03704037
146	0x3e47c870	0.19510055
147	0xbdd7c938	-0.10536426
148	0xbe6c6387	-0.23084842
149	0x3eb3822e	0.35060257
150	0x3e56644c	0.20936698
151	0x3ea8fa93	0.33003673
152	0x3e865dbf	0.26243398
153	0x3f085efb	0.5326993
154	0x3eea4637	0.45756695
155	0x3e6a3860	0.22873068
156	0xbe9b0857	-0.302798
157	0x3c37712d	0.011196417
158	0xbf2c1838	-0.67224455
159	0xbb396c80	-0.002829343
160	0xbe7d8c25	-0.24760492
161	0xbe8ab82c	-0.27093637
162	0xbe46227c	-0.19349092
163	0x3e56eeae	0.20989487
164	0xbe049bae	-0.12950012
165	0xbed5c08c	-0.41748464
166	0xbcb4b170	-0.022057265
167	0xbe236908	-0.15958035
168	0xbecdef67	-0.40221712
169	0xbc8e7bf0	-0.017393082
170	0x3eccfa85	0.4003488
171	0xbdedc918	-0.11610621
172	0xbe8e334c	-0.2777351
173	0xbd7be7f0	-0.06150049
174	0x3deb628c	0.11493406
175	0xbe144c0a	-0.14482132
176	0xbeb1ae97	-0.34703514
177	0x3db586e6	0.088636205
178	0x3f039580	0.51399994
179	0xbe5d95ef	-0.21639226
180	0x3edc2ed1	0.43004468
181	0xbe6bcf8e	-0.23028395
182	0xbeacb40b	-0.33731112
183	0xbcff5ca5	-0.031172106
184	0x3e98830d	0.29787484
185	0xbf1cb23c	-0.61209464
186	0x3e68ae9d	0.2272286
187	0xbe5dacb2	-0.2164791
188	0xbe91013d	-0.28321257
189	0x3e31e176	0.17371163
190	0x3f52d06b	0.8234927
191	0x3eacaec1	0.33727077
192	0xbe600b13	-0.21879224
193	0xbec577d5	-0.38567987
194	0xbd5d5920	-0.054040074
195	0xbd4e8920	-0.05042374
196	0x3ebafd65	0.3652145
197	0x3e1dbd34	0.15404207
198	0xbeb2af33	-0.3489929
199	0xbeb568b4	-0.35431445
200	0xbdc058b0	-0.09391916
201	0xbe1ee614	-0.15517455
202	0xbac41199	-0.0014958858
203	0xbe3ede20	-0.18639421
204	0xbe39169a	-0.18075028
205	0x3e82ba25	0.25532642
206	0xbe258796	-0.16165003
207	0xbea7774a	-0.32708198
208	0x3dfc310c	0.123140424
209	0x3d198b22	0.037486203
210	0x3ee66ad9	0.45003393
211	0x3e608a3e	0.21927735
212	0x3d80bfb0	0.062865615
213	0x3e6aa0c8	0.22912896
214	0xbe84f61d	-0.2596902
215	0x3ece8889	0.40338543
216	0xbeb337a5	-0.3500339
217	0xbf4055d1	-0.75130945
218	0x3d63a289	0.055574927
219	0xbedc5b51	-0.4303842
220	0xbebc027c	-0.36720645
221	0xbe654c71	-0.22392441
222	0x3ec27276	0.37977952
223	0xbdde43b4	-0.10852757
224	0x3e664a6e	0.2248933
225	0xbe700cda	-0.23442402
226	0xbee23090	-0.44177675
227	0x3ebd6739	0.36992815
228	0xbe15d4a4	-0.14631897
229	0x3edff4e1	0.43741515
230	0xbefcbe32	-0.49363858
231	0x3ed4b95f	0.41547677
232	0xbd913ff0	-0.07092273
233	0x3e09c73f	0.13454913
234	0xbe27f966	-0.16403732
235	0xbdb1ae54	-0.086758286
236	0xbedb9716	-0.42888707
237	0xbe82546f	-0.25455043
238	0x3f406536	0.75154436
239	0x3e9b5d3b	0.30344567
240	0x3d4ee108	0.050507575
241	0x3e44d4c4	0.19221789
242	0x3ed1f28b	0.41005358
243	0xbdf0d2b8	-0.117589414
244	0x3e8b04c5	0.27152076
245	0x3d45c66d	0.048284937
246	0x3c48ed0c	0.012263548
247	0x3e51ae86	0.20476732
248	0xbda19fd4	-0.07891813
249	0xbe2e848c	-0.1704275
250	0xbd3a51ee	-0.04548829
251	0xbf190e81	-0.59787756
252	0xbee6bef5	-0.45067564
253	0xbebbdffa	-0.36694318
254	0x3e512090	0.20422578
255	0xbe107ed8	-0.14110887

sequential/dense_2/MatMul f4 [1, 16]
0	0x3f69205b	0.91064996
1	0xbf2df3a2	-0.6794988
2	0xbf6838d9	-0.9071174
3	0xbdc9c2a6	-0.09851579
4	0x3e9bd01c	0.30432212
5	0xbf67beeb	-0.9052569
6	0x3de02ad0	0.10945666
7	0xbf109016	-0.5646986
8	0x3ee5813e	0.44825166
9	0x3e5f9895	0.21835549
10	0xbf020924	-0.507952
11	0xbf17321a	-0.59060824
12	0x3e340763	0.17580943
13	0x3fa79b55	1.3094279
14	0xbf3b428e	-0.7314843
15	0x3f512583	0.81697863
